models/hey_mycroft.onnx (onnx, 19288 bytes, 1 tensors)

const_fold_opt__113 f4 [20, 1]
00000000: 3a1d 4f3f 3b90 4d3f 8907 19bf 914e e0bc
00000010: fa3a 7fbe d8ca b7bd 4492 d83d ffdc 36bf
00000020: d338 db3e 956b 4fbe ac7f 90be 60c9 123f
00000030: 397e e8bd 9a81 2a3f 762f 16bf 95aa aa3c
00000040: 848c cdbe b284 39be 1b56 373e cd21 e8be
0.8090397 0.80298203 -0.5977712 -0.027381213 -0.24924842 -0.08974236 0.10574773 -0.71430963
0.4281679 -0.20255883 -0.28222406 0.57338524 -0.113522 0.66604006 -0.5866617 0.020833293
-0.40146267 -0.18117025 0.1790394 -0.45338288
